results/01-epo=80-w=01/19-19-07/weight.pth (torch, 5173 bytes, 16 tensors)

main.0.weight f4 [3, 2]
0	0x3e106f8c	0.14105052
1	0xbe2d6848	-0.16934311
2	0x403812d8	2.8761501
3	0x400cdf7c	2.2011404
4	0xbed1dfcf	-0.40991065
5	0xbe445f0b	-0.19176881

main.0.bias f4 [3]
0	0xbeeb9622	-0.4601298
1	0x401ea154	2.4785967
2	0x3e948cdb	0.29013714

main.2.weight f4 [4, 3]
0	0x3ef3dcd8	0.47629428
1	0xbe0177c4	-0.12643343
2	0xbdbc1e68	-0.09185487
3	0x3c10f1c0	0.0088467
4	0x400eefa8	2.2333775
5	0xbdfc726a	-0.1232651
6	0x3f0b24ac	0.5435283
7	0x4020328b	2.503085
8	0xbe2bb1ba	-0.16767016
9	0xbe152e88	-0.14568532
10	0xbf081413	-0.5315563
11	0xbe5bfc8c	-0.21483058

main.2.bias f4 [4]
0	0xbeb50197	-0.35352775
1	0x40139b63	2.306359
2	0x4021ea13	2.5299118
3	0x3d155100	0.0364542

main.4.weight f4 [5, 4]
0	0xbcc9ac60	-0.024618328
1	0x3fd45688	1.6588907
2	0x400966d5	2.1469014
3	0x3efbd888	0.49188638
4	0x3e2fc48c	0.1716482
5	0xbe6b3d7c	-0.22972673
6	0x3e32d714	0.17464858
7	0x3bb4ce80	0.005517781
8	0x3ef9ef0a	0.48815185
9	0x400707fe	2.1098628
10	0x40184251	2.3790476
11	0xbe368598	-0.178244
12	0xbe2a23c0	-0.166152
13	0x3fba9bfc	1.4578853
14	0x40021d2e	2.033031
15	0xbcdc2d20	-0.026876986
16	0x3e92b57c	0.28654087
17	0x4010040c	2.250247
18	0x40052a09	2.0806906
19	0xbed7c9c6	-0.42146128

main.4.bias f4 [5]
0	0x4008ff2c	2.1405745
1	0xbe96ff74	-0.2949177
2	0x3fc8406c	1.564466
3	0x3f82ef00	1.0229187
4	0x3ff76802	1.9328616

main.6.weight f4 [3, 5]
0	0x3e6a67ea	0.22891203
1	0xbe0122da	-0.12610951
2	0xbe610879	-0.21975888
3	0x3f7eed0d	0.9958046
4	0x3f0c3aaf	0.54777044
5	0x3fcdf196	1.6089351
6	0xbe00bdb0	-0.1257236
7	0x3fc53679	1.5407249
8	0x3fbd2400	1.4776611
9	0x3fd9fb57	1.7029828
10	0x3fcea604	1.6144414
11	0xbdf46ce4	-0.11934832
12	0x3fdd6ae6	1.7298248
13	0x3ffad3dd	1.9595906
14	0x3fe816dc	1.8131976

main.6.bias f4 [3]
0	0xbd1e8d90	-0.038709223
1	0x3f7eb976	0.9950174
2	0x3f7679fb	0.9627988

target.0.weight f4 [3, 2]
0	0x3e106f8c	0.14105052
1	0xbe2d6848	-0.16934311
2	0x40378557	2.8675134
3	0x400d09b4	2.2037172
4	0xbed1dfcf	-0.40991065
5	0xbe445f0b	-0.19176881

target.0.bias f4 [3]
0	0xbeeb9622	-0.4601298
1	0x401e7545	2.4759076
2	0x3e948cdb	0.29013714

target.2.weight f4 [4, 3]
0	0x3ef3dcd8	0.47629428
1	0xbe0177c4	-0.12643343
2	0xbdbc1e68	-0.09185487
3	0x3c10f1c0	0.0088467
4	0x400ea643	2.2288978
5	0xbdfc726a	-0.1232651
6	0x3f0b24ac	0.5435283
7	0x401fe9cb	2.4986446
8	0xbe2bb1ba	-0.16767016
9	0xbe152e88	-0.14568532
10	0xbf081413	-0.5315563
11	0xbe5bfc8c	-0.21483058

target.2.bias f4 [4]
0	0xbeb50197	-0.35352775
1	0x401371de	2.303825
2	0x4021c108	2.5274067
3	0x3d155100	0.0364542

target.4.weight f4 [5, 4]
0	0xbcc9ac60	-0.024618328
1	0x3fd3d149	1.6548244
2	0x400924ae	2.1428638
3	0x3efbd888	0.49188638
4	0x3e2fc48c	0.1716482
5	0xbe6b3d7c	-0.22972673
6	0x3e32d714	0.17464858
7	0x3bb4ce80	0.005517781
8	0x3ef9ef0a	0.48815185
9	0x4006cb94	2.1061754
10	0x40180654	2.3753862
11	0xbe368598	-0.178244
12	0xbe2a23c0	-0.166152
13	0x3fba08a5	1.4533888
14	0x4001d408	2.0285664
15	0xbcdc2d20	-0.026876986
16	0x3e92b57c	0.28654087
17	0x400fbec8	2.2460194
18	0x4004e544	2.0764933
19	0xbed7c9c6	-0.42146128

target.4.bias f4 [5]
0	0x4008d997	2.1382806
1	0xbe96ff74	-0.2949177
2	0x3fc801d0	1.5625553
3	0x3f829b3f	1.0203627
4	0x3ff71930	1.9304562

target.6.weight f4 [3, 5]
0	0x3e60c22a	0.21949068
1	0xbe0122da	-0.12610951
2	0xbe6a9b22	-0.22910741
3	0x3f7c7f26	0.98631513
4	0x3f09d479	0.5383983
5	0x3fcd8ad7	1.6057996
6	0xbe00bdb0	-0.1257236
7	0x3fc4d0e4	1.5376248
8	0x3fbcbc3c	1.4744945
9	0x3fd99566	1.6998718
10	0x3fce47e0	1.6115685
11	0xbdf46ce4	-0.11934832
12	0x3fdd0cda	1.7269547
13	0x3ffa73eb	1.9566625
14	0x3fe7b8ed	1.810331

target.6.bias f4 [3]
0	0xbd3d1be4	-0.046169177
1	0x3f7e2295	0.9927152
2	0x3f764f6b	0.9621493
