results/00-epo=40-w=00/16-11-12/weight.pth (torch, 5173 bytes, 16 tensors)

main.0.weight f4 [3, 2]
0	0x3fb2ff81	1.3984224
1	0x3fd13e0a	1.6347058
2	0x3f261570	0.6487646
3	0x3fa8465a	1.314647
4	0xbda02330	-0.078192115
5	0xbe533140	-0.20624256

main.0.bias f4 [3]
0	0x3f9221f3	1.141661
1	0x3f997869	1.1989871
2	0xbd029f10	-0.031889975

main.2.weight f4 [4, 3]
0	0x3fd90285	1.6953894
1	0x3ff1c9b8	1.8889685
2	0x3db188a8	0.08668643
3	0xbeacb8c2	-0.3373471
4	0xbee2d0d6	-0.44299954
5	0xbd8f06b8	-0.069837034
6	0xbf1388ed	-0.5763081
7	0x3eec0c36	0.46103066
8	0xbee7d80a	-0.45282012
9	0xbd47d4f0	-0.048787057
10	0xbe6605d0	-0.22463155
11	0x3e879764	0.2648269

main.2.bias f4 [4]
0	0x3fbe4e3e	1.4867628
1	0xbef08374	-0.4697529
2	0x3df97898	0.121812046
3	0xbe4a0b70	-0.19730926

main.4.weight f4 [5, 4]
0	0xbeb0fd2c	-0.34568155
1	0xbeadc594	-0.33939803
2	0xbed1999e	-0.40937513
3	0xbdc993c0	-0.09842634
4	0xbe9be959	-0.30451468
5	0xbed1994c	-0.4093727
6	0xbf06b26a	-0.5261599
7	0x3efac0f8	0.48975348
8	0xbe921d48	-0.28537965
9	0x3dd2c3d8	0.102912605
10	0x3dc9e140	0.09857416
11	0xbee43b4c	-0.4457649
12	0x3f8fe3ff	1.1241454
13	0x3eda7556	0.42667645
14	0xbeb0ffba	-0.34570104
15	0x3edcad7c	0.43101108
16	0xbeb60142	-0.35547835
17	0xbd0d82e0	-0.03454864
18	0x3ed43d90	0.41453218
19	0xbe3f8284	-0.18702132

main.4.bias f4 [5]
0	0x3e2c3f96	0.16821131
1	0x3dd7522e	0.105137214
2	0xbebe9302	-0.37221533
3	0x3f9ee593	1.241381
4	0xbdcb1dd8	-0.099178016

main.6.weight f4 [3, 5]
0	0x3e5f7425	0.2182165
1	0x3ec60395	0.38674608
2	0xbed32546	-0.41239375
3	0xbfc1c30b	-1.5137647
4	0x3e4ce344	0.2000857
5	0x3d4e1688	0.050314456
6	0x3e680d57	0.22661339
7	0x3d62fe80	0.05541849
8	0xbe3c4250	-0.18384671
9	0x3c0fa580	0.008767486
10	0x3e095df8	0.13414752
11	0xbd6ec1f6	-0.058290444
12	0x3e2b2b88	0.16715825
13	0x3f5c7df9	0.8612972
14	0xbe92a2ff	-0.2863998

main.6.bias f4 [3]
0	0xbee2ace0	-0.44272518
1	0xbe195b5f	-0.14976262
2	0x3eb0a1eb	0.34498534

target.0.weight f4 [3, 2]
0	0x3fb0f9a2	1.3826182
1	0x3fcfaa08	1.6223764
2	0x3f2210eb	0.63307065
3	0x3fa6b631	1.302435
4	0xbda02330	-0.078192115
5	0xbe533140	-0.20624256

target.0.bias f4 [3]
0	0x3f903d66	1.1268737
1	0x3f9797d2	1.1843207
2	0xbd029f10	-0.031889975

target.2.weight f4 [4, 3]
0	0x3fd71cc5	1.6805655
1	0x3fefdef0	1.873991
2	0x3db188a8	0.08668643
3	0xbeacb8c2	-0.3373471
4	0xbee2d0d6	-0.44299954
5	0xbd8f06b8	-0.069837034
6	0xbf1388ed	-0.5763081
7	0x3eec0c36	0.46103066
8	0xbee7d80a	-0.45282012
9	0xbd47d4f0	-0.048787057
10	0xbe6605d0	-0.22463155
11	0x3e879764	0.2648269

target.2.bias f4 [4]
0	0x3fbc9374	1.4732499
1	0xbef08374	-0.4697529
2	0x3df97898	0.121812046
3	0xbe4a0b70	-0.19730926

target.4.weight f4 [5, 4]
0	0xbeb0fd2c	-0.34568155
1	0xbeadc594	-0.33939803
2	0xbed1999e	-0.40937513
3	0xbdc993c0	-0.09842634
4	0xbe9be959	-0.30451468
5	0xbed1994c	-0.4093727
6	0xbf06b26a	-0.5261599
7	0x3efac0f8	0.48975348
8	0xbe921d48	-0.28537965
9	0x3dd2c3d8	0.102912605
10	0x3dc9e140	0.09857416
11	0xbee43b4c	-0.4457649
12	0x3f8e171c	1.1100802
13	0x3eda7556	0.42667645
14	0xbeb0ffba	-0.34570104
15	0x3edcad7c	0.43101108
16	0xbeb60142	-0.35547835
17	0xbd0d82e0	-0.03454864
18	0x3ed43d90	0.41453218
19	0xbe3f8284	-0.18702132

target.4.bias f4 [5]
0	0x3e2c3f96	0.16821131
1	0x3dd7522e	0.105137214
2	0xbebe9302	-0.37221533
3	0x3f9d7f78	1.2304525
4	0xbdcb1dd8	-0.099178016

target.6.weight f4 [3, 5]
0	0x3e5f7425	0.2182165
1	0x3ec60395	0.38674608
2	0xbed32546	-0.41239375
3	0xbfc10012	-1.5078146
4	0x3e4ce344	0.2000857
5	0x3d4e1688	0.050314456
6	0x3e680d57	0.22661339
7	0x3d62fe80	0.05541849
8	0xbe4320fd	-0.19055553
9	0x3c0fa580	0.008767486
10	0x3e095df8	0.13414752
11	0xbd6ec1f6	-0.058290444
12	0x3e2b2b88	0.16715825
13	0x3f5854c7	0.8450436
14	0xbe92a2ff	-0.2863998

target.6.bias f4 [3]
0	0xbee17231	-0.44032434
1	0xbe1dca94	-0.15409309
2	0x3eaabaec	0.33345735
